multi_data_result/cnn1d_fold1.pt (torch, 611009 bytes, 17 tensors)

net.0.0.weight f4 [64, 17, 5]
0.098356955 0.11033513 -0.003452967 0.11991411 -0.0016937027 0.04309788 -0.032875896 0.08357969
0.113174185 -0.066516325 0.10918778 0.031799376 0.087646805 0.019137368 0.05504527 -0.013596995
0.086362354 0.020840852 -0.042416997 0.039427858 -0.080847315 -0.04700411 -0.08138917 0.03210486
-0.12588798 -0.028392984 -0.0067498107 -0.038154956 0.040910777 -0.071069896 0.11847846 -0.07107994
0.10417437 0.03558533 -0.021256257 0.046674788 0.0010385879 0.072962165 -0.0065850173 -0.060160324
0.105855785 0.0535447 0.13074183 0.17685421 0.13001086 -0.030803926 0.08232141 0.04011229
0.07320155 -0.0527077 -0.123011395 -0.056566216 -0.09937139 0.068743 0.004791852 0.017112084
0.008926658 -0.026171308 0.059036747 -0.105867326 0.027685639 -0.054418422 0.05221074 -0.018603474
0.050517272 -0.02428046 0.0870744 -0.06773012 -0.071845345 -0.07879175 0.103977375 0.0438448
0.11338282 -0.07619814 -0.09315391 -0.08863383 -0.07708318 0.038233183 0.029860167 0.07704034
-0.037639663 -0.052514695 0.08102834 -0.018425409 0.09121376 -0.002145238 0.083982624 -0.061578978
-0.033033177 0.052811813 0.019345565 -0.031468935 0.0584894 0.06658926 -0.086104356 -0.07179148
0.08204065 -0.054012712 -0.057903677 -0.12755135 -0.091423094 0.0018480718 -0.036458697 -0.097616844
-0.013281703 -0.1410737 -0.15171379 -0.1146302 -0.14578657 -0.115890354 0.13603823 0.05387388
0.07218726 -0.05937976 -0.026698958 -0.041693226 0.012305117 -0.10026722 -0.05451925 -0.07710302
-0.015369461 -0.05528315 -0.022691589 -0.08995298 -0.09506201 -0.034466606 -0.0044339 -0.050997186
0.124865726 0.009911099 0.08757256 0.028012032 -0.09690736 0.067610286 -0.040553663 -0.056604173
-0.10288907 -0.12003444 0.0186236 -0.038901273 0.052815482 -0.07594518 0.09336933 -0.0672123
-0.009145557 0.025284749 0.052807022 0.0817667 0.09281395 -0.091586076 0.06749068 -0.005835827
0.026022635 -0.04380476 0.13599783 -0.11804517 0.021993851 0.00089267007 -0.002390927 -0.098513454
0.09776346 0.026702752 0.016552636 -0.08966037 0.058286108 0.0035886278 -0.032419696 0.107226714
0.033798475 -0.05386575 -0.044106867 0.0049167434 0.06741649 -0.023104357 -0.063070044 -0.04701357
-0.09141501 0.0322726 0.08370795 -0.09366727 0.04573164 0.08428734 0.052301235 -0.008569127
0.07821555 0.091150865 0.07441607 0.012896531 -0.0016189753 0.032947514 -0.005981626 -0.018698463
0.084908076 0.11246305 0.012327656 0.016674936 0.045984592 0.04194 0.07611488 0.080787234
-0.11660019 -0.055837225 0.07652662 0.027666839 -0.021305539 -0.015493798 -0.022618873 -0.05658916
0.003738336 0.072226286 0.08618086 0.061603617 -0.08935073 -0.05955641 -0.01404002 0.16121094
0.07150631 0.028169872 0.10243009 0.013650428 -0.044370364 0.09909021 -0.03338193 -0.0044764304
-0.08845272 0.08963442 0.09693863 0.052944478 -0.06537457 -0.1003479 -0.12815998 0.037789624
0.008381759 0.045708634 0.011882249 0.0030105195 -0.024871703 -0.10825293 -0.11938143 -0.12920962
0.022973832 -0.07406085 -0.04161682 -0.07957004 -0.034776438 -0.08815098 -0.081403 0.025245143
-0.04422361 0.05246157 -0.052816756 -0.10414633 -0.04775287 -0.083691955 -0.06424109 -0.10763383
00000000: 5f6f c93d 62f7 e13d 2c4b 62bb 8795 f53d
00000010: 3bff ddba 6787 303d e0a8 06bd d42b ab3d
00000020: dec7 e73d b639 88bd d89d df3d 1040 023d
00000030: 2b80 b33d f8c5 9c3c 2677 613d eec5 5ebc
00000040: bfde b03d 6fba aa3c 72bd 2dbd 1b7f 213d
00000050: 4793 a5bd 6287 40bd 5daf a6bd 6380 033d
00000060: c7e8 00be 6798 e8bc 842d ddbb 5f48 1cbd
00000070: 0f92 273d 188d 91bd d6a4 f23d 5c92 91bd
00000080: 5f59 d53d ecc1 113d 9a21 aebc 102e 3f3d
00000090: 3a21 883a 306d 953d 21c7 d7bb ac6a 76bd
000000a0: ebca d83d b051 5b3d 30e1 053e 4519 353e
000000b0: 9121 053e 8458 fcbc 2198 a83d c94c 243d
000000c0: b2ea 953d 07e4 57bd 66ed fbbd fab1 67bd
000000d0: 3a83 cbbd 21c9 8c3d f804 9d3b a42e 8c3c
000000e0: 1e41 123c 3665 d6bc 84d0 713d f8d0 d8bd
000000f0: fecc e23c dae5 5ebd eeda 553d 5066 98bc
00000100: 33eb 4e3d d1e7 c6bc 1054 b23d 17b6 8abd
00000110: a723 93bd 925d a1bd 17f2 d43d 9b96 333d
00000120: 4035 e83d c50d 9cbd 7ac7 bebd a785 b5bd
00000130: c9dd 9dbd 669a 1c3d 4f9d f43c 53c7 9d3d
00000140: 0c2c 1abd a619 57bd 30f2 a53d e2f0 96bc
00000150: 48ce ba3d 1f97 0cbb 15ff ab3d 3d3a 7cbd
00000160: cc4d 07bd 3351 583d 977a 9e3c 92e5 00bd
00000170: 9592 6f3d f35f 883d 7b57 b0bd 6907 93bd
00000180: ee04 a83d 6f3c 5dbd 682c 6dbd d29c 02be
00000190: 083c bbbd 003b f23a b755 15bd 57eb c7bd
000001a0: 809b 59bc a075 10be dc5a 1bbe 3dc3 eabd
000001b0: 1349 15be ec57 edbd 9b4d 0b3e dcaa 5c3d
000001c0: ead6 933d 3138 73bd c6b7 dabc 84c6 2abd
000001d0: 679b 493c e658 cdbd 944f 5fbd 30e8 9dbd
000001e0: 31d0 7bbc 9670 62bd b6e3 b9bc 4539 b8bd
000001f0: dfaf c2bd db2c 0dbd 404a 91bb 6de2 50bd
00000200: 9ab9 ff3d 2a62 223c 3e59 b33d 7d79 e53c
00000210: 5e77 c6bd 4377 8a3d 991b 26bd c7d9 67bd
00000220: 81b7 d2bd 9ed4 f5bd 8590 983c f156 1fbd
00000230: 0c55 583d 2689 9bbd 6b38 bf3d 9aa6 89bd
00000240: 3fd7 15bc f621 cf3c 2d4c 583d 4d75 a73d
00000250: 3d15 be3d 7b91 bbbd 8e38 8a3d 773a bfbb
00000260: 6c2d d53c 9f6c 33bd 0443 0b3e abc1 f1bd
00000270: 732c b43c 1302 6a3a 19b1 1cbb 6cc1 c9bd
00000280: 3538 c83d bbbf da3c 6599 873c db9f b7bd
00000290: 6abd 6e3d 2f2f 6b3b 84ca 04bd ae99 db3d
000002a0: 4570 0a3d 55a2 5cbd 67a9 34bd a21c a13b
000002b0: a811 8a3d 5945 bdbc de2a 81bd 4d91 40bd
000002c0: cb37 bbbd 4630 043d 136f ab3d a0d4 bfbd
000002d0: 1a51 3b3d d79e ac3d d239 563d 8665 0cbc
000002e0: 792f a03d 4ead ba3d 7467 983d f94b 533c
000002f0: cc33 d4ba f9f3 063d 8401 c4bb 852d 99bc
00000300: 49e4 ad3d 0753 e63d f0f9 493c e099 883c
00000310: 575a 3c3d 47c9 2b3d 1ee2 9b3d c773 a53d
00000320: 15cc eebd 93b5 64bd fdb9 9c3d 91a5 e23c
00000330: f488 aebc b3d9 7dbc 374b b9bc 09ca 67bd
00000340: dffe 743b 60eb 933d 977f b03d 1354 7c3d
00000350: 84fd b6bd 6cf1 73bd 1d08 66bc 7b14 253e
00000360: e671 923d 81c4 e63c dec6 d13d 0ba6 5f3c
00000370: b3bd 35bd cfef ca3d 7ebb 08bd 05af 92bb
00000380: b326 b5bd 4092 b73d c387 c63d 4fdc 583d
00000390: 1ae3 85bd 3383 cdbd 5f3c 03be 4bc9 1a3d
000003a0: a553 093c fa38 3b3d c4ad 423c 234c 453b
000003b0: bebf cbbc b6b3 ddbd 407e f4bd 874f 04be
000003c0: 9e33 bc3c 37ad 97bd 6676 2abd 9ef5 a2bd
000003d0: bd71 0ebd 8088 b4bd 9eb6 a6bd e7ce ce3c
000003e0: d123 35bd f1e1 563d 6256 58bd ac4a d5bd
000003f0: 8398 43bd b066 abbd d590 83bd 206f dcbd

net.0.1.weight f4 [64]
0.94461936 0.986868 0.88839614 0.88548994 0.9986709 0.99593866 0.99599504 1.0071359
0.9529447 0.9993136 0.9962009 1.0651278 1.0086039 1.0563405 1.0753074 0.9035804
0.94592303 0.9867964 1.0502609 1.0070423 1.0413159 0.985783 0.9569927 0.9605347
0.9877628 0.9786965 0.9389964 1.0188679 1.1430185 1.0089897 1.0175682 0.96207243
0.9455134 1.0501423 0.96056354 1.0662518 1.0370775 0.9721567 1.0612501 1.0061659
1.0412294 0.98389477 0.9615887 0.9210055 1.0770264 0.9711883 1.0252569 1.024829
0.9831742 0.93406945 0.9823614 0.99189746 0.9558824 1.0267967 1.0009804 1.0003694
0.9932342 1.0448189 0.96558356 1.0242141 1.0490817 0.95173407 0.9322252 1.0062379
00000000: 93d2 713f 62a3 7c3f ee6d 633f 78af 623f
00000010: e5a8 7f3f d6f5 7e3f 88f9 7e3f d4e9 803f
00000020: 2ff4 733f 04d3 7f3f 0607 7f3f 1c56 883f
00000030: ef19 813f 2a36 873f aca3 893f 0c51 673f
00000040: 0328 723f b09e 7c3f f36e 863f c3e6 803f
00000050: d749 853f 465c 7c3f 79fd 743f 9ae5 753f
00000060: 06de 7c3f db8b 7a3f 1162 703f 436a 823f
00000070: 6e4e 923f 9326 813f ad3f 823f 614a 763f
00000080: 2b0d 723f 106b 863f 7ee7 753f f07a 883f
00000090: f5be 843f 43df 783f 0bd7 873f 0bca 803f
000000a0: 0147 853f 87e0 7b3f ad2a 763f 04c7 6b3f
000000b0: 00dc 893f cc9f 783f 9e3b 833f 992d 833f
000000c0: 4eb1 7b3f 2d1f 6f3f 097c 7b3f feec 7d3f
000000d0: b5b4 743f 136e 833f 2020 803f 1b0c 803f
000000e0: 9944 7e3f a0bc 853f 7c30 773f 7319 833f
000000f0: 4f48 863f d8a4 733f 50a6 6e3f 67cc 803f

net.0.1.bias f4 [64]
-0.044053447 -0.13064769 -0.08614742 -0.091532245 -0.016195565 -0.043500952 -0.10749808 0.030742304
-0.058603212 0.009295928 -0.09653302 0.009849265 -0.079493046 -0.040839262 -0.0019152865 -0.025259169
-0.11074126 -0.06620643 -0.06559959 -0.030076243 -0.022808759 0.025050512 -0.0921333 -0.04298362
0.017358385 -0.033370987 -0.06715333 -0.018977355 0.08712844 -0.04410951 -0.015437295 -0.06597804
-0.10170426 -0.028347835 -0.07635445 -0.01061562 -0.039843787 -0.060420543 0.07132908 -0.013388397
0.067690104 -0.10103039 -0.011051351 -0.061559632 -0.014009519 -0.09684381 -0.04630161 -0.0058912607
-0.0866201 -0.1362583 -0.04738484 0.0049933596 -0.09713612 0.043962877 0.0048875045 -0.019877397
0.017957686 -0.012098022 -0.011367772 0.070937574 0.054843128 -0.034950264 -0.031614035 -0.014804269
00000000: 6371 34bd 82c8 05be 0f6e b0bd 4275 bbbd
00000010: 90ac 84bc 0e2e 32bd f427 dcbd 49d7 fb3c
00000020: ec09 70bd f34d 183c 1bb3 c5bd d05e 213c
00000030: 40cd a2bd 1247 27bd 5a0a fbba 51ec cebc
00000040: 50cc e2bd 3d97 87bd 1459 86bd 7462 f6bc
00000050: 6fd9 babc bb36 cd3c 62b0 bcbd 980f 30bd
00000060: 2c33 8e3c 04b0 08bd af87 89bd 6676 9bbc
00000070: 6570 b23d 2cac 34bd b5ec 7cbc 7f1f 87bd
00000080: 534a d0bd b839 e8bc b95f 9cbd 23ed 2dbc
00000090: 3d33 23bd 887b 77bd fb14 923d 025b 5bbc
000000a0: 1ca1 8a3d 05e9 cebd ba10 35bc f425 7cbd
000000b0: 2e88 65bc 0c56 c6bd c2a6 3dbd 7a0b c1bb
000000c0: e165 b1bd 4c87 0bbe 9b16 42bd 569f a33b
000000d0: 4def c6bd 6b12 343d 5c27 a03b ecd5 a2bc
000000e0: ff1b 933c c836 46bc e43f 3abc b847 913d
000000f0: 30a3 603d 0228 0fbd b87d 01bd 9b8d 72bc

net.0.1.running_mean f4 [64]
0.000119357 0.00012718837 0.00045114994 0.0004020197 2.1937849e-05 -0.0004145465 -0.001179358 -0.00060609076
0.00010828956 0.00022537677 0.00042879488 0.00045788166 -0.0010033627 -0.00021743312 0.00020598604 0.00041437894
0.00063147466 6.17524e-05 0.00070187176 6.1209226e-05 0.0005575385 8.830294e-05 0.0007890188 -0.0014112374
-0.0001974601 -0.0004010133 0.0001763512 0.0003617894 0.0010448837 0.00027272914 0.00035754096 5.0613085e-05
0.0004894508 -3.5873807e-05 0.00052041037 0.0012122763 -0.00022957352 -0.00052246125 -0.0009277129 -0.0013146562
-0.0016942988 2.4204048e-05 -0.0013949604 -0.000989767 0.00039628966 0.0006478264 -5.0141876e-05 0.00015796087
-0.0008844245 -0.00043930506 0.0007921729 -0.0012273068 -0.001575218 -0.0005815606 0.0016155085 0.0002081084
0.00055059494 0.00019538631 -0.00049417093 0.00051301415 0.00013966928 -0.0008790979 -1.4452161e-06 0.0011996019
00000000: 4d4f fa38 de5d 0539 5288 ec39 2cc6 d239
00000010: 2c07 b837 7d57 d9b9 b094 9aba 10e2 1eba
00000020: 8419 e338 1e53 6c39 e0cf e039 d60f f039
00000030: 4483 83ba c2fe 63b9 f5fd 5739 0041 d939
00000040: 8c89 253a 1181 8138 d1fd 373a 745d 8038
00000050: c627 123a 482f b938 28d6 4e3a 45f9 b8ba
00000060: 4b0d 4fb9 183f d2b9 eaea 3839 8dae bd39
00000070: 7bf4 883a 16fd 8e39 5674 bb39 6349 5438
00000080: 7d4e 003a 3577 16b8 266c 083a 3ee5 9e3a
00000090: acb9 70b9 c8f5 08ba c231 73ba 8b50 acba
000000a0: 3c13 deba cc09 cb37 1bd7 b6ba 12bb 81ba
000000b0: 19c5 cf39 e5d2 293a 6e4f 52b8 4ca2 2539
000000c0: b9d8 67ba 8752 e6b9 d3a9 4f3a 95dd a0ba
000000d0: 8c77 ceba df73 18ba 78bf d33a ac37 5a39
000000e0: cd55 103a 9de0 4c39 408b 01ba cc7b 063a
000000f0: 3074 1239 4373 66ba 3ff9 c1b5 f63b 9d3a

net.0.1.running_var f4 [64]
0.47080645 0.8887393 0.8467642 0.89247143 0.5266352 0.49892738 1.0664645 0.56054085
1.2661316 0.9077949 1.4735017 0.79988265 0.5437659 0.55196637 0.36075196 1.4520303
1.1223936 1.7212381 0.87931967 0.3988344 1.5334795 0.8085109 0.9412082 0.41064245
1.1691118 0.36207825 1.8297411 0.7274307 0.8260889 0.60948473 0.7952731 0.8743328
0.6775045 0.6703185 1.0280201 0.4048927 0.4671733 1.2244877 0.21811052 0.68296164
0.3920331 0.68256 0.9445878 0.5464873 0.37646154 0.651248 0.45753172 0.8146494
0.5675253 1.313319 0.27629256 0.6150261 0.8348666 0.66400856 1.7139108 0.39802706
0.7354435 0.45315486 0.8423942 0.546286 1.10381 0.7454587 0.8012903 0.5604779
00000000: 8b0d f13e 6b84 633f 8ac5 583f 0279 643f
00000010: 91d1 063f 6973 ff3e e981 883f 9b7f 0f3f
00000020: 9a10 a23f 3f65 683f b49b bc3f 1cc5 4c3f
00000030: 3e34 0b3f ab4d 0d3f 7bb4 b83e 21dc b93f
00000040: 98aa 8f3f 8851 dc3f 181b 613f 0634 cc3e
00000050: 0e49 c43f 92fa 4e3f 05f3 703f ba3f d23e
00000060: 75a5 953f 5262 b93e f534 ea3f e638 3a3f
00000070: 907a 533f 3107 1c3f 0597 4b3f 46d4 5f3f
00000080: ef70 2d3f fe99 2b3f 2a96 833f 194e cf3e
00000090: 5731 ef3e 03bc 9c3f 5d58 5f3e 93d6 2e3f
000000a0: 90b8 c83e 41bc 2e3f 82d0 713f 97e6 0b3f
000000b0: 91bf c03e 30b8 263f 9941 ea3e dd8c 503f
000000c0: 5749 113f d61a a83f 3876 8d3e 5a72 1d3f
000000d0: d1b9 553f 77fc 293f 6e61 db3f 34ca cb3e
000000e0: 0646 3c3f ea03 e83e 25a7 573f 66d9 0b3f
000000f0: a549 8d3f 62d6 3e3f 5c21 4d3f 7b7b 0f3f

net.1.0.weight f4 [128, 64, 5]
-0.045411475 -0.0014871367 0.0061400803 -0.0329375 0.034072164 0.0549689 0.020745005 -0.0044195037
0.09299456 0.10733349 -0.004129112 -0.038925137 0.021505922 0.019925615 -0.018093374 0.041141476
-0.053504888 -0.017337827 0.034939196 -0.047987577 -0.04191003 -0.052526865 -0.053467233 0.016530618
0.0020921773 -0.046553392 -0.03717388 -0.008955022 -0.023586467 -0.028030567 -0.041927837 0.049736444
0.040309854 0.024046315 -0.000749419 -0.07874784 -0.03103311 -0.013702854 -0.0538931 0.0063046548
-0.0017678371 -0.019668423 0.0015759788 0.005132199 -0.066251084 0.0013723802 -0.06570707 -0.024153076
-0.03330516 0.023671899 -0.038921326 0.036418043 -0.02852941 0.051341504 0.038414348 -0.043853514
-0.008212305 0.03236583 0.018876258 -0.053141464 0.06611045 0.121835455 0.07771457 0.079452
0.07904634 -0.04906662 -0.038092885 -0.019942315 0.014704607 -0.046291452 -0.00892991 0.010638438
-0.024862543 0.046175126 0.049520403 -0.02099262 -0.062101334 -0.013404874 0.015592503 -0.011826509
0.0024012804 -0.049956072 -0.07709033 -0.048734963 -0.032453027 0.03112324 -0.000539881 -0.021073304
-0.0247932 -0.023752442 -0.012750878 -0.0072771222 0.025434107 0.051364023 0.062335882 0.032837342
-0.030410912 0.057697378 0.054245263 -0.01909488 -0.008269195 0.04026626 -0.030783284 0.0132261785
-0.00595339 0.06510222 0.051764775 0.084737085 0.07815395 0.003137495 0.032123066 -0.011456236
-0.029685205 0.0063797585 -0.011497182 -0.030747073 -0.044423893 -0.030264545 0.0044177393 0.034418456
0.006081833 -0.014968296 0.021720417 -0.078796834 -0.06390302 -0.00073100324 -0.07558592 0.024048468
-0.021619728 -0.047352694 0.05712294 0.028447174 0.044822793 0.0356028 -0.015414248 0.07058886
0.023505663 0.021204287 0.035317317 -0.026501121 -0.05057214 0.02876631 -0.061456252 0.011650698
0.025592975 -0.036221206 -0.0028687916 -0.003926211 0.033463564 -0.021790506 0.08271862 -0.011547595
0.06094524 0.066757634 0.017935045 -0.049605045 -0.06770139 -0.0177837 -0.01346442 -0.051719252
0.056912497 0.0017085271 0.004293358 0.058957223 0.028923275 -0.007666389 -0.0017769735 -0.06957872
-0.035942525 0.020010095 -0.045265175 -0.0062296255 0.026408726 -0.013115103 -0.030695532 0.026325384
-0.040258992 0.046556994 0.04265681 -0.005392607 0.041901957 0.05674346 0.12591946 0.045727927
0.07866788 -0.05521087 0.019530294 0.038592763 0.023485491 0.0037745852 -0.02782931 0.006107687
-0.019891892 -0.048363335 -0.07294966 0.028335843 -0.040014006 0.01459147 -0.030725097 -0.0141317295
-0.031247698 -0.011055148 0.016984163 -0.038822655 0.008606912 0.054587442 0.05646658 0.055627454
0.0006158484 0.031889435 -0.037727907 0.034092803 0.0091755055 0.043613188 -0.011325882 0.03548289
0.0130907595 0.03621361 -0.012757915 -0.04945181 -0.039567556 -0.04288627 0.03020357 -0.030246526
-0.012721643 0.030474005 0.05488102 -0.0055279573 0.044892125 -0.0038287959 -0.034821868 -0.016165746
-0.031635024 0.009320452 -0.0063135624 -0.034356747 0.026321078 -0.029031292 -0.034269776 0.032702707
-0.06610898 -0.09274142 -0.1074227 -0.079558544 -0.102407776 0.012861105 -0.025386205 0.008911389
0.0069840867 -0.013390195 -0.030424949 -0.04939338 0.0014263812 -0.06595137 -0.048272714 0.07218901
00000000: 6201 3abd 07ec c2ba ba32 c93b 79e9 06bd
00000010: 418f 0b3d 1227 613d 6ef1 a93c 7cd1 90bb
00000020: ef73 be3d a9d1 db3d 814d 87bb f76f 1fbd
00000030: 302d b03c 0b3b a33c 8e38 94bc f783 283d
00000040: f127 5bbd 0f08 8ebc 671c 0f3d 9f8e 44bd
00000050: daa9 2bbd 6926 57bd 7500 5bbd 386b 873c
00000060: e91c 093b c5ae 3ebd a343 18bd 16b8 12bc
00000070: 6838 c1bc 5ca0 e5bc 86bc 2bbd 71b8 4b3d
00000080: f21b 253d c7fc c43c a874 44ba 8c46 a1bd
00000090: 2639 febc ef81 60bc 03bf 5cbd 4797 ce3b
000000a0: c5b6 e7ba ac1f a1bc 1391 ce3a 012c a83b
000000b0: a6ae 87bd 70e1 b33a 6e91 86bd acdc c5bc
000000c0: fe6a 08bd 92eb c13c f86b 1fbd 162b 153d
000000d0: 82b6 e9bc 784b 523d 5d58 1d3d be9f 33bd
000000e0: e78c 06bc 0892 043d 62a2 9a3c ddaa 59bd
000000f0: ea64 873d de84 f93d d128 9f3d bbb7 a23d
00000100: 0ce3 a13d 15fa 48bd 4907 1cbd 115e a3bc
00000110: 98eb 703c 1b9c 3dbd c24e 12bc d84c 2e3c
00000120: 88ac cbbc 2122 3d3d e8d5 4a3d b7f8 abbc
00000130: f85d 7ebd 1ea0 5bbc b377 7f3c f9c3 41bc
00000140: cd5e 1d3b bd9e 4cbd 89e1 9dbd 509e 47bd
00000150: 77ed 04bd 2af6 fe3c cd86 0dba eca1 acbc
00000160: 1c1b cbbc 7b94 c2bc 0fe9 50bc ed74 eebb
00000170: 305b d03c 1563 523d e953 7f3d 7380 063d
00000180: 4e20 f9bc 1654 6c3d 4830 5e3d de6c 9cbc
00000190: 857b 07bc 3cee 243d 3a2d fcbc 9db2 583c
000001a0: a814 c3bb 5054 853d 4d07 543d a38a ad3d
000001b0: 2e0f a03d 6e9e 4d3b 7a93 033d f0b2 3bbc
000001c0: 632e f3bc 4b0d d13b ad5e 3cbc 49e1 fbbc
000001d0: d4f5 35bd 5aed f7bc afc2 903b 5efa 0c3d
000001e0: 1d4a c73b 953d 75bc 04ef b13c 3c60 a1bd
000001f0: 96df 82bd cca0 3fba cacc 9abd 4b01 c53c
00000200: db1b b1bc e6f4 41bd bef9 693d 0c0a e93c
00000210: 1b98 373d 3ed4 113d 0b8c 7cbc e490 903d
00000220: f38e c03c 9db4 ad3c e4a8 103d e118 d9bc
00000230: bb24 4fbd 53a7 eb3c 8db9 7bbd 92e2 3e3c
00000240: 5ca8 d13c b05c 14bd 5602 3cbb 72a7 80bb
00000250: 1711 093d 0182 b2bc 6168 a93d 2032 3dbc
00000260: b7a1 793d 3ab8 883d 84ec 923c a92e 4bbd
00000270: 07a7 8abd 1faf 91bc df99 5cbc 91d7 53bd
00000280: 141d 693d a8f0 df3a 4caf 8c3b 217d 713d
00000290: 81f0 ec3c 5536 fbbb 56e9 e8ba 4a7f 8ebd
000002a0: 7838 13bd 36ec a33c fa67 39bd e321 ccbb
000002b0: 1d57 d83c bbe0 56bc 3275 fbbc 55a8 d73c
000002c0: 9de6 24bd 8cb2 3e3d e8b8 2e3d 77b4 b0bb
000002d0: 63a1 2b3d d56b 683d 08f1 003e 354d 3b3d
000002e0: a01c a13d cb24 62bd fffd 9f3c 7213 1e3d
000002f0: a564 c03c 085f 773b 4bfa e3bc fe22 c83b
00000300: 52f4 a2bc a218 46bd a266 95bd 9220 e83c
00000310: bae5 23bd 1011 6f3c 33b3 fbbc c588 67bc
00000320: 2cfb ffbc a720 35bc 5f22 8b3c 8104 1fbd
00000330: 0104 0d3c 1597 5f3d 8049 673d 9dd9 633d
00000340: e370 213a 7f9e 023d 9488 1abd e5a4 0b3d
00000350: dc54 163c bea3 323d 3190 39bc 8256 113d
00000360: a07a 563c b954 143d 9306 51bc fb8d 4abd
00000370: 9711 22bd 83a9 2fbd 7a6d f73c 90c7 f7bc
00000380: 706e 50bc 9fa4 f93c ecca 603d de23 b5bb
00000390: cee0 373d 89ec 7abb 60a1 0ebd 076e 84bc
000003a0: ba93 01bd cfb4 183c 00e2 cebb a9b9 0cbd
000003b0: 4d9f d73c 08d3 edbc 775e 0cbd 46f3 053d
000003c0: 2564 87bd 37ef bdbd 6f00 dcbd 97ef a2bd
000003d0: 2bbb d1bd 62b7 523c bbf6 cfbc 1301 123c
000003e0: c4da e43b 8c62 5bbc be3d f9bc b650 4abd
000003f0: 69f5 ba3a 8311 87bd 9cb9 45bd d5d7 933d

net.1.1.weight f4 [128]
0.9546317 1.0066199 1.0401894 0.9368097 1.0320448 0.98902607 0.8712082 0.9851258
0.97289056 0.92224425 1.0166761 0.96609426 1.0016558 1.0680723 1.0079929 0.9083246
0.9670691 1.0307517 1.107693 1.0243498 1.0206059 1.0246764 1.066923 1.1209779
0.9310486 0.98691905 0.9766627 1.0702574 0.9776888 0.9966607 0.98782223 1.0951123
1.0805609 1.0596054 0.96277523 1.0066913 0.9926359 1.0133953 0.939673 0.92156094
1.0314229 0.9779498 1.00218 1.0716875 1.063275 0.9188464 0.97768235 0.92256325
0.94111735 0.9838453 0.91603535 0.9213878 0.9884663 0.9829164 0.99534965 1.0025269
1.045932 0.99382156 0.9878974 0.9752381 1.0142691 1.0068816 1.0012168 0.9709458
1.0422511 1.0037916 0.9667366 0.9554725 0.9071613 0.9244338 0.9107908 1.0076897
1.083307 1.0472317 1.074359 0.9905755 1.026024 1.0375574 1.0333858 0.95520794
1.0109814 1.0134296 1.0236765 1.0287584 1.031402 0.97677904 0.9760158 0.93237275
0.8757772 1.0553705 0.94429886 0.92704433 1.0194342 0.9783599 0.99982363 0.87621915
1.0189098 0.9443477 1.0075114 0.99107844 0.9094394 1.0329274 1.0327283 0.92980134
0.9265321 1.0438144 1.0263498 0.9787675 0.977513 1.028838 0.9727381 0.9718693
0.9476211 1.036485 1.0132227 1.0406535 0.99659467 0.9567522 0.9993806 1.0383819
1.0390936 1.0277773 0.99975485 0.9707683 1.0435905 1.0130697 1.0405623 0.9451325
00000000: be62 743f ecd8 803f ed24 853f c3d2 6f3f
00000010: 0b1a 843f d030 7d3f 8007 5f3f 3431 7c3f
00000020: 5b0f 793f 3318 6c3f 7122 823f f451 773f
00000030: 4236 803f 98b6 883f e905 813f f687 683f
00000040: d791 773f acef 833f e2c8 8d3f e51d 833f
00000050: 37a3 823f 9928 833f ef90 883f 347c 8f3f
00000060: 3359 6e3f baa6 7c3f 9106 7a3f 32fe 883f
00000070: d049 7a3f 2825 7f3f ebe1 7c3f a42c 8c3f
00000080: d24f 8a3f 26a1 873f 7078 763f 43db 803f
00000090: 631d 7e3f f0b6 813f 698e 703f 6beb 6b3f
000000a0: aa05 843f eb5a 7a3f 6f47 803f 0e2d 893f
000000b0: 6519 883f 8539 6b3f 6449 7a3f 1b2d 6c3f
000000c0: 11ed 703f 49dd 7b3f 4b81 6a3f 12e0 6b3f
000000d0: 210c 7d3f 69a0 7b3f 3ccf 7e3f cd52 803f
000000e0: 1ae1 853f 176b 7e3f d8e6 7c3f 34a9 793f
000000f0: 92d3 813f 7fe1 803f df27 803f e78f 783f
00000100: 7c68 853f 3e7c 803f 0d7c 773f d999 743f
00000110: b93b 683f b2a7 6c3f 9629 693f fafb 803f
00000120: cea9 8a3f b00b 863f 9984 893f 5b96 7d3f
00000130: c154 833f aece 843f fc45 843f 8288 743f
00000140: d767 813f 10b8 813f d507 833f 5bae 833f
00000150: fb04 843f 310e 7a3f 2cdc 793f fbaf 6e3f
00000160: ef32 603f 6116 873f 92bd 713f c752 6d3f
00000170: d27c 823f cb75 7a3f 71f4 7f3f e64f 603f
00000180: a36b 823f c5c0 713f 22f6 803f 51b7 7d3f
00000190: 05d1 683f f736 843f 7130 843f 7607 6e3f
000001a0: 3531 6d3f b69b 853f 6e5f 833f 8290 7a3f
000001b0: 4b3e 7a3f f7b0 833f 5d05 793f 6dcc 783f
000001c0: 4c97 723f 8aab 843f 48b1 813f 2234 853f
000001d0: d420 7f3f b6ed 743f 68d7 7f3f b3e9 843f
000001e0: 0501 853f 358e 833f efef 7f3f 4584 783f
000001f0: 6094 853f 45ac 813f 2531 853f 34f4 713f

net.1.1.bias f4 [128]
-0.049616117 -0.04215817 0.001057052 -0.07070976 -0.06448014 0.009212253 -0.14080657 -0.019055855
-0.02293246 -0.060656726 -0.0145049505 -0.11936916 -0.070658095 -0.05500364 -0.024541276 -0.050089046
-0.040292088 -0.012129111 0.045921963 -0.027425231 -0.09234971 -0.045094598 0.07115694 -0.091923244
-0.0409881 -0.13662413 -0.045351747 -0.081939295 -0.061919045 -0.07737753 0.023705496 -0.010643169
-0.15156755 -0.020224841 -0.014048009 -0.07956804 -0.01429051 -0.06685779 -0.025542464 -0.069540635
-0.09651185 -0.03693394 -0.046638023 -0.0035083417 0.078681014 -0.03434365 -0.048432965 -0.111032546
-0.097486004 -0.024487713 -0.081958264 -0.09448798 -0.069763795 -0.14872466 -0.14470524 -0.051561397
-0.030945182 -0.02788342 -0.044185165 -0.019713156 -0.04631335 -0.08825926 -0.096123934 -0.065550275
-0.07402086 -0.03590276 0.0027889297 -0.12008708 -0.12165783 -0.053122744 -0.14123628 -0.040839225
0.03494709 -0.024026243 -0.040741377 -0.104236856 -0.06581971 0.02480242 -0.015341404 -0.0064651184
-0.042561803 -0.00364936 -0.06938241 -0.08752881 -0.05864572 -0.08197536 -0.057663113 -0.093295775
-0.09974549 -0.06527268 -0.057584427 -0.042903632 -0.04938569 0.008141152 -0.034737762 -0.10736609
0.0050499127 -0.018309137 -0.028409924 -0.13974306 -0.16270772 0.0030453277 0.023540884 -0.14458078
-0.10204639 -0.03446267 -0.015238595 0.009812238 -0.11401184 -0.19979742 -0.053961944 -0.10066045
-0.12930396 -0.027572308 -0.064770214 -0.04097054 -0.06734479 -0.049971502 0.0022671307 0.024603501
-0.026149841 -0.060776785 -0.019688958 -0.1702831 0.015023621 0.012848019 0.019460136 -0.1497482
00000000: 453a 4bbd 0cae 2cbd c88c 8a3a 47d0 90bd
00000010: 2a0e 84bd fdee 163c 992f 10be 061b 9cbc
00000020: dbdc bbbc 3073 78bd 2ca6 6dbc d177 f4bd
00000030: 31b5 90bd 7f4b 61bd c90a c9bc 2c2a 4dbd
00000040: 5109 25bd 2eb9 46bc ab18 3c3d e1aa e0bc
00000050: d821 bdbd 1db5 38bd bbba 913d 4142 bcbd
00000060: 23e3 27bd 32e7 0bbe c1c2 39bd cacf a7bd
00000070: d39e 7dbd 1c78 9ebd 0732 c23c b060 2ebc
00000080: 8634 1bbe 91ae a5bc 9f29 66bc 92f4 a2bd
00000090: be22 6abc bdec 88bd 6e3e d1bc 526b 8ebd
000000a0: 01a8 c5bd 0b48 17bd 8307 3fbd 35ec 65bb
000000b0: 8323 a13d edab 0cbd a561 46bd 0865 e3bd
000000c0: bea6 c7bd 759a c8bc bcd9 a7bd ea82 c1bd
000000d0: 52e0 8ebd 474b 18be 9c2d 14be 0b32 53bd
000000e0: c080 fdbc c56b e4bc 81fb 34bd 7c7d a1bc
000000f0: 11b3 3dbd 45c1 b4bd a0dc c4bd 393f 86bd
00000100: 4098 97bd c60e 13bd 7ac6 363b 37f0 f5bd
00000110: be27 f9bd 3c97 59bd 3ea0 10be 0847 27bd
00000120: ae24 0f3d afd2 c4bc 6ee0 26bd 227a d5bd
00000130: 7ccc 86bd 722e cb3c 835a 7bbc 58d9 d3bb
00000140: 4955 2ebd 1a2a 6fbb 5d18 8ebd 4e42 b3bd
00000150: 7f36 70bd b3e2 a7bd 2830 6cbd db11 bfbd
00000160: 5d47 ccbd afad 85bd a6dd 6bbd b8bb 2fbd
00000170: a648 4abd 7762 053c 2f49 0ebd c1e2 dbbd
00000180: bd79 a53b 0bfd 95bc eebb e8bc ce18 0fbe
00000190: da9c 26be 1f94 473b d0d8 c03c fc0c 14be
000001a0: b3fd d0bd bb28 0dbd 4dab 79bc 82c3 203c
000001b0: 0a7f e9bd b297 4cbe 3307 5dbd 1127 cebd
000001c0: 4268 04be 52df e1bc 3fa6 84bd bad0 27bd
000001d0: 11ec 89bd ebae 4cbd 2494 143b 488d c93c
000001e0: 3138 d6bc 14f1 78bd bd4a a1bc b15e 2ebe
000001f0: a225 763c 7f80 523c dd6a 9f3c 9857 19be

net.1.1.running_mean f4 [128]
-0.06463511 -0.43216452 -0.87791437 0.76534885 -0.8699833 -0.64867854 1.0909426 -0.8111593
0.1098597 -0.44940057 0.19314463 0.97769505 -0.91124713 -0.15573278 -1.0612265 -1.1939733
-0.73792505 -1.1250693 -1.318157 0.084314525 -0.076575674 0.030510603 -1.0807918 -0.003293104
-1.063177 -0.37307647 0.18205294 -0.26798937 -0.41175553 0.5941628 -1.0082937 -1.564662
0.07328462 -0.5708919 0.36435878 0.05412059 0.1793369 -0.13828608 -0.4800737 -0.04337134
-1.6744273 -0.6936239 -0.9183359 -2.1206102 -0.98540837 -0.56584424 -0.30412084 -0.18412654
0.9302284 -0.9680987 0.3757374 0.24173805 -0.18904234 1.3866543 1.3736509 -0.76887697
-0.6460204 -0.36675537 0.2062292 -0.07384042 0.41097543 0.10503629 0.7021895 -0.5971267
-0.3917553 -0.65846837 0.18046671 0.3571569 1.0312816 -0.8256351 1.5919889 -1.6549908
-1.2437638 -0.5442424 -0.88543916 -0.5819548 -1.2786169 -1.672337 -0.4815349 0.066855
-0.83816886 -1.0605505 0.1995068 -0.25352088 -0.51837295 -1.2213854 -1.0636802 0.93050104
-1.4726042 0.3145803 -0.48610497 0.36208987 -0.43773013 -0.11951325 0.276727 -0.20860627
-1.2130682 -1.1273586 -0.5442205 0.91859514 0.63165027 0.35090303 -1.5230452 0.39491585
0.61769253 -0.19421697 -1.256906 -0.122433744 0.99212736 1.7223104 -0.8391847 0.783396
0.123189375 -0.9240659 -0.068730704 -0.017922234 0.95539314 -0.42843336 -0.35823694 -2.2626073
-0.30229086 -0.30075806 -0.75409013 1.3393341 -0.6233988 -0.97370476 -1.1236358 1.0206765
00000000: 6a5f 84bd ab44 ddbe ffbe 60bf e7ed 433f
00000010: 3ab7 5ebf cc0f 26bf 02a4 8b3f 23a8 4fbf
00000020: 1ffe e03d d517 e6be b5c7 453e 394a 7a3f
00000030: 7e47 69bf 6a78 1fbe 45d6 87bf 1ed4 98bf
00000040: a8e8 3cbf 4502 90bf 5eb9 a8bf 18ad ac3d
00000050: b5d3 9cbd 5ff1 f93c 6357 8abf 1ed1 57bb
00000060: 2f16 88bf e103 bfbe 166c 3a3e e735 89be
00000070: 9fd1 d2be 0e1b 183f c50f 81bf d846 c8bf
00000080: 3f16 963d f925 12bf 3c8d ba3e 8dad 5d3d
00000090: 18a4 373e de9a 0dbe 38cc f5be 25a6 31bd
000000a0: a253 d6bf 5691 31bf 1018 6bbf 14b8 07c0
000000b0: b943 7cbf 2bdb 10bf bab5 9bbe ab8b 3cbe
000000c0: 7323 6e3f 51d5 77bf a760 c03e 2e8a 773e
000000d0: 5194 41be e37d b13f cbd3 af3f 1fd5 44bf
000000e0: 9861 25bf 5cc7 bbbe bf2d 533e a539 97bd
000000f0: 5f6b d23e 441d d73d b1c2 333f 4cdd 18bf
00000100: 2794 c8be 6291 28bf 44cc 383e 45dd b63e
00000110: 0901 843f d25c 53bf 4bc6 cb3f bdd6 d3bf
00000120: a733 9fbf 7853 0bbf 24ac 62bf fdfa 14bf
00000130: b8a9 a3bf 240f d6bf be8b f6be 46eb 883d
00000140: 3c92 56bf 1ec0 87bf 834b 4c3e 7dcd 81be
00000150: 17b4 04bf 5b56 9cbf ac26 88bf 5135 6e3f
00000160: 4b7e bcbf ab10 a13e c0e2 f8be d863 b93e
00000170: 2a1e e0be 5dc3 f4bd 29af 8d3e e29c 55be
00000180: d245 9bbf 494d 90bf 0952 0bbf 0d29 6b3f
00000190: d5b3 213f 90a9 b33e 25f3 c2bf 6932 ca3e
000001a0: 1921 1e3f d0e0 46be 4ce2 a0bf 8bbe fabd
000001b0: 0ffc 7d3f ab74 dc3f cfd4 56bf a48c 483f
000001c0: b64a fc3d 958f 6cbf afc2 8cbd a6d1 92bc
000001d0: a594 743f 9e5b dbbe d56a b7be 8fce 10c0
000001e0: dec5 9abe f6fc 99be 0d0c 41bf 4d6f ab3f
000001f0: 1097 1fbf b744 79bf 4cd3 8fbf 87a5 823f

net.1.1.running_var f4 [128]
0.52058625 0.7141419 0.88137496 0.99771315 0.86024344 0.8643588 0.98158926 0.87446123
0.77829695 0.69602776 0.5902583 0.9383398 0.64495534 0.3637244 0.93758106 0.62196434
0.51144147 0.9583882 1.3600162 0.6268538 0.4577053 0.765366 1.6041873 0.26954105
0.55012906 0.87712735 0.6901771 0.7404934 0.5704301 0.49195826 0.87884605 1.1995261
0.29942673 0.55115294 0.32512563 0.90975446 0.5550496 0.6903979 0.5477531 0.5050648
1.3874137 0.5780703 0.66058093 2.1217382 0.75309896 0.5399525 0.41958508 0.72718495
0.97260374 0.86833376 0.7319859 0.68888885 0.6538083 1.7246593 1.0772903 1.3207456
0.9731389 0.5373803 0.8127495 0.46700355 0.4755895 0.53155375 0.958705 0.48987883
0.36583883 0.62650967 0.4850148 0.38853556 0.84987 0.7203232 1.5088587 1.1106516
1.160005 0.5216982 1.1673523 1.384432 1.3549396 1.978797 0.5384127 0.5338118
0.6732759 0.52322966 0.894794 0.39902544 0.7166085 1.3457751 0.8921361 0.97884786
0.8141697 0.6116275 0.62763 0.69547224 0.68630385 0.9286547 0.75453746 0.47322652
0.8457732 1.4248734 0.52446514 1.0204405 1.0130173 0.35642356 1.9156315 0.8210686
1.3491402 0.61761135 0.7243004 0.5966202 1.0068685 1.1910535 0.5383333 0.68194544
0.7270967 1.3283675 0.98531854 0.44781715 1.137944 0.53594804 0.7299467 1.5134604
0.56759185 0.7437063 0.757537 1.3092641 1.1146122 1.1114292 1.3467587 1.1381145
00000000: 2445 053f 01d2 363f caa1 613f 216a 7f3f
00000010: ea38 5c3f 9e46 5d3f 6f49 7b3f b1dc 5f3f
00000020: 783e 473f e02e 323f 2b1b 173f 0a37 703f
00000030: cb1b 253f 163a ba3e 5005 703f 0e39 1f3f
00000040: d4ed 023f ee58 753f 0315 ae3f 7e79 203f
00000050: 5958 ea3e 07ef 433f 0256 cd3f 4901 8a3e
00000060: 42d5 0c3f 6b8b 603f 72af 303f fa90 3d3f
00000070: b507 123f f4e1 fb3e 0efc 603f 128a 993f
00000080: 764e 993e 5c18 0d3f de76 a63e abe5 683f
00000090: bb17 0e3f ebbd 303f 8c39 0c3f ed4b 013f
000000a0: c696 b13f 6afc 133f d51b 293f 8fca 0740
000000b0: 18cb 403f 543a 0a3f dbd3 d63e cb28 3a3f
000000c0: 8ffc 783f 1f4b 5e3f 6e63 3b3f 055b 303f
000000d0: fb5f 273f a3c1 dc3f a6e4 893f 310e a93f
000000e0: a21f 793f c191 093f 5a10 503f 171b ef3e
000000f0: 7880 f33e e813 083f b16d 753f 66d1 fa3e
00000100: 3a4f bb3e f062 203f dc53 f83e 22ee c63e
00000110: 1591 593f 1a67 383f 4822 c13f d529 8e3f
00000120: 0b7b 943f 038e 053f cd6b 953f 1135 b13f
00000130: a96e ad3f 3849 fd3f 6ad5 093f e4a7 083f
00000140: cf5b 2c3f 61f2 053f 3811 653f 104d cc3e
00000150: a873 373f 5c42 ac3f 0863 643f c695 7a3f
00000160: 6d6d 503f 9f93 1c3f 5cac 203f 780a 323f
00000170: 9cb1 2f3f 50bc 6d3f 5e29 413f bf4a f23e
00000180: 9884 583f 4062 b63f 5943 063f cb9d 823f
00000190: 8daa 813f 267d b63e 6a33 f53f 8d31 523f
000001a0: a0b0 ac3f c71b 1e3f c06b 393f 1abc 183f
000001b0: 11e1 803f 7174 983f 36d0 093f fa93 2e3f
000001c0: 0223 3a3f f207 aa3f d63d 7c3f 4a48 e53e
000001d0: 26a8 913f e433 093f c9dd 3a3f 12b9 c13f
000001e0: b34d 113f 8963 3e3f f2ed 413f f795 a73f
000001f0: 9dab 8e3f 5043 8e3f 9762 ac3f bcad 913f

net.2.0.weight f4 [256, 128, 3]
-0.022524208 0.0008401279 -0.037264492 -0.018112268 -0.001023519 0.043068808 -0.03393087 0.003013739
0.05129377 0.0017807704 -0.044983804 -0.039036408 0.07074509 0.08329829 0.038700774 0.035026565
0.023413511 0.0030926953 0.044147052 0.038035035 0.008385212 0.06319538 0.08859338 0.00128173
-0.045501657 0.03518466 0.0060854633 0.016183151 0.049802303 0.01238674 0.0253071 0.009628577
0.032151908 -0.02247794 0.0071199513 -0.030198494 -0.030981671 0.039325714 -0.015081254 0.016700575
-0.041840207 0.024843983 0.024044557 -0.018785847 -0.0045716073 0.0046533393 -0.019014046 -0.054147583
-0.014711961 0.028493803 0.009771485 0.07273096 0.037096743 -0.033166252 -0.016334238 -0.037930865
-0.040606044 0.025413789 -0.051183313 0.00363582 -0.010410823 -0.04808736 -0.012431968 -0.069150575
-0.019084353 -0.044744343 0.054746963 -0.0074518058 0.063637726 0.052807607 -0.036168147 -0.039210245
-0.013180558 -0.029137582 0.015671005 -0.034300175 0.009695992 -0.028830824 -0.03356638 0.042868268
-0.0059691314 0.022510672 -0.020600699 0.033534028 -0.05946253 0.013360726 -0.0054660253 -0.011703351
-0.009996232 -0.0073645026 0.017989594 0.020022003 0.029055359 -0.047587056 -0.0044629765 -0.019382471
0.014946221 0.050334543 0.021481127 0.0033500718 0.02769445 -0.0032314407 0.035254985 -0.03955344
-0.037426934 0.010942553 0.010744723 -0.037866063 0.04697562 -0.0063804593 -0.043758214 -0.017923476
-0.0053125448 0.017498542 0.0011480631 -0.0012537665 0.00772945 0.04604573 0.025442818 -0.031908095
-0.00808627 -0.03797494 0.021571355 -0.047256045 -0.026547968 -0.026338601 -0.042550784 -0.045325648
0.0012959448 0.01825061 0.011607698 0.08105725 -0.007538294 -0.0030978625 -0.0221319 -0.007661019
-0.005387575 0.014379132 0.00034142446 -0.029777149 0.033550207 -0.04330639 0.021576148 0.010182563
-0.04188262 0.0024663196 -0.053615287 -0.020299936 0.00634682 -0.06862438 0.022992838 -0.01266621
-0.031533156 -0.008879024 0.03996203 -0.056689005 -0.0042376015 -0.0049666045 -0.027437588 -0.017387401
0.039980467 0.013887378 -0.051105868 0.029713484 -0.038119014 0.023683267 0.055618063 0.013267127
0.06510691 0.056418695 0.04660734 0.015501791 0.007897433 -0.013337098 -0.012188862 -0.030529937
-0.003248742 0.04023378 -0.036935933 0.03237995 -0.060001038 -0.011730123 -0.010914109 -0.057751797
-0.074655324 -0.060236566 -0.057528343 -0.052294653 0.0028388817 -0.044620357 -0.011981268 -0.009383043
0.022160158 0.025354777 0.01529017 0.09296949 0.076975286 0.07639205 0.012467797 0.05011229
0.064037174 0.022367684 0.014713718 0.033000853 -0.0060592154 -0.023405256 -0.029979486 -0.04173067
-0.059792876 -0.04028039 -0.045160446 -0.03894095 0.03372683 0.024810255 -0.036979403 0.021643186
0.03219765 -0.036407363 0.0033608028 -0.06034839 -0.04348537 -0.049124256 0.052652985 0.086204916
0.060397882 0.054894976 0.05469157 -0.02033742 0.020527324 -0.03890137 0.01144854 0.030513762
0.06361211 0.047097754 0.027879983 -0.036909144 -0.025781715 0.01648658 0.043050297 0.019728903
0.036232345 -0.023052976 0.03457003 -0.050410353 -0.040284958 0.0026105766 -0.0274449 0.005497771
-0.07846247 -0.03218877 0.020240126 0.032459 -0.0045277295 0.03767208 0.064784884 -0.057207733
00000000: b084 b8bc 073c 5c3a a7a2 18bd 2e60 94bc
00000010: 9927 86ba eb68 303d 19fb 0abd 2682 453b
00000020: 6b19 523d bd68 e93a f040 38bd a4e4 1fbd
00000030: cde2 903d 4b98 aa3d b484 1e3d 0478 0f3d
00000040: b1cd bf3c d1ae 4a3b 8ad3 343d a0ca 1b3d
00000050: 2162 093c 946c 813d 7270 b53d b9ff a73a
00000060: f25f 3abd ca1d 103d 9168 c73b 8792 843c
00000070: 80fd 4b3d c1f1 4a3c d650 cf3c 2ec1 1d3c
00000080: b8b1 033d a823 b8bc 7b4e e93b d562 f7bc
00000090: 46cd fdbc 0014 213d 5d17 77bc a5cf 883c
000000a0: a360 2bbd 9c85 cb3c 17f9 c43c c7e4 99bc
000000b0: 6ccd 95bb 0a7b 983b 58c3 9bbc dbc9 5dbd
000000c0: 700a 71bc d66b e93c 9418 203c f8f3 943d
000000d0: c1f2 173d 56d9 07bd 61cf 85bc 655d 1bbd
000000e0: 8652 26bd 9430 d03c 98a5 51bd f046 6e3b
000000f0: 2892 2abc 40f7 44bd 74af 4bbc d19e 8dbd
00000100: ca56 9cbc d845 37bd 5a3e 603d 472e f4bb
00000110: 7f54 823d ca4c 583d 0d25 14bd ec9a 20bd
00000120: 44f3 57bc f0b1 eebc 7b60 803c 577e 0cbd
00000130: f0db 1e3c 9f2e ecbc e77c 09bd a396 2f3d
00000140: b498 c3bb 4d68 b83c ccc2 a8bc fa5a 093d
00000150: fb8e 73bd f2e6 5a3c 581c b3bb 69bf 3fbc
00000160: 3cc7 23bc ed51 f1bb ea5e 933c 2f05 a43c
00000170: 8105 ee3c a5ea 42bd 293e 92bb fdc7 9ebc
00000180: ffe0 743c 982b 4e3d 30f9 af3c e18c 5b3b
00000190: 79df e23c 94c6 53bb 8867 103d ca02 22bd
000001a0: fc4c 19bd 6548 333c a20a 303c 7219 1bbd
000001b0: 8269 403d 2c13 d1bb d03b 33bd 41d4 92bc
000001c0: db14 aebb 1a59 8f3c 9b7a 963a 6c55 a4ba
000001d0: 5347 fd3b 739a 3c3d 756d d03c 10b2 02bd
000001e0: 467c 04bc 9c8b 1bbd 69b6 b03c 8e8f 41bd
000001f0: 207b d9bc 0dc4 d7bc bb49 2ebd 63a7 39bd
00000200: b1dc a93a 4e82 953c 372e 3e3c 5801 a63d
00000210: cb03 f7bb 8205 4bbb f54d b5bc 4909 fbbb
00000220: 418a b0bb 7396 6b3c 3701 b339 35ef f3bc
00000230: f16b 093d 0b62 31bd 76c0 b03c c4d4 263c
00000240: 1c8d 2bbd faa1 213b b49b 5bbd 0d4c a6bc
00000250: fcf8 cf3b f08a 8cbd 7a5b bc3c ef85 4fbc
00000260: e928 01bd 5379 11bc 3aaf 233d bb32 68bd
00000270: 94db 8abb e6be a2bb cbc4 e0bc 0670 8ebc
00000280: 8fc2 233d e387 633c 6354 51bd b169 f33c
00000290: af22 1cbd 6903 c23c c4cf 633d 5d5e 593c
000002a0: c656 853d 4a17 673d 57e7 3e3d 39fb 7d3c
000002b0: 3c64 013c d883 5abc cbb3 47bc eb19 fabc
000002c0: d9e8 54bb 2dcc 243d 224a 17bd d7a0 043d
000002d0: a6c3 75bd b42f 40bc 17d1 32bc 268d 6cbd
000002e0: e4e4 98bd 9eba 76bd d7a2 6bbd eb32 56bd
000002f0: 880c 3a3b d6c3 36bd 154d 44bc 56bb 19bc
00000300: 3889 b53c d2b4 cf3c 9f83 7a3c ca66 be3d
00000310: 38a5 9d3d 6f73 9c3d bb45 4c3c 8b42 4d3d
00000320: ec25 833d 6f3c b73c ce11 713c e72b 073d
00000330: 628c c6bb 61bc bfbc 8a97 f5bc c7ed 2abd
00000340: 60e9 74bd 0dfd 24bd 29fa 38bd 8c80 1fbd
00000350: 2525 0a3d e03e cb3c b777 17bd 0d4d b13c
00000360: afe1 033d e31f 15bd ea40 5c3b e02f 77bd
00000370: b71d 32bd 8436 49bd a8aa 573d 348c b03d
00000380: c563 773d 8ed9 603d 4504 603d a99a a6bc
00000390: eb28 a83c 0b57 1fbd a892 3b3c fff7 f93c
000003a0: 1147 823d 93e9 403d 9064 e43c 0b2e 17bd
000003b0: 2d34 d3bc dd0e 873c 8255 303d 829e a13c
000003c0: 5e68 143d 98d9 bcbc 4e99 0d3d 167b 4ebd
000003d0: d701 25bd 3516 2b3b 20d4 e0bc a526 b43b
000003e0: eeb0 a0bd 5fd8 03bd 9fce a53c baf3 043d
000003f0: 595d 94bb 0a4e 1a3d f0ad 843d a852 6abd

net.2.1.weight f4 [256]
1.0872781 1.0711057 1.0320228 1.0671123 1.1376349 1.0505859 1.0678028 1.0977843
1.0187494 1.1153784 1.1450393 1.1108148 1.0568517 1.1207817 1.134628 1.1105869
1.0873148 1.0428107 1.0495421 1.149798 1.1131351 1.0833298 1.1271366 1.0439366
1.0681307 1.0959276 1.149029 1.1017338 1.1238879 1.1136384 1.0917102 1.1372474
1.0607398 1.1093363 1.0592072 1.0704281 1.0947958 1.1327215 1.0966945 1.1260946
1.0359724 1.1157862 1.1174388 1.0902895 1.082618 1.077255 1.0872207 1.0497054
1.069104 1.0953985 1.0363266 1.0499756 1.0621408 1.1284922 1.0871822 1.0674782
1.0468931 1.0565257 1.1376486 1.1040496 1.0852631 1.1073151 1.0922264 1.0517595
1.1198434 1.0862741 1.0892314 1.123751 1.1181191 1.0987531 1.0890386 1.151321
1.0743176 1.0372192 1.0785922 1.0904766 1.1375058 1.0883791 1.1003928 1.1152484
1.0775383 1.058075 1.0968105 0.9940506 1.0807035 1.1111687 1.0691832 1.1223954
1.0814577 1.1547664 1.1078562 1.0838771 1.0855676 1.1013658 1.0420489 1.0420635
1.0891826 1.098055 1.1163707 1.0977175 1.1085131 1.1005929 1.0932798 1.1109613
1.1271759 1.1069692 1.0183011 1.1195555 1.1058706 1.090337 1.088947 1.0938762
1.074728 1.0970254 1.0978138 1.0550259 1.1081108 1.0918427 1.0175834 1.1160076
1.0861374 1.1357945 1.1135013 1.1098975 1.1246946 1.1177024 1.0065877 1.0749383
1.1517606 1.1276463 1.1353638 1.1151175 1.0718875 1.1475956 1.131426 1.0423099
1.0841391 1.1036042 1.1260772 1.0982714 1.1428801 1.1101942 1.1117542 1.1083983
1.0776556 1.1218123 1.1492779 1.1191325 1.0289984 1.1076204 1.068954 1.1065986
1.1134663 1.1299342 1.0546542 1.12917 1.1180536 1.1231899 1.0388396 1.1455016
1.0752447 1.0350143 1.0211204 1.0990773 1.1267608 1.084217 1.1340575 1.0798928
1.0723101 1.102063 1.1065233 1.0685279 1.0604213 1.042872 1.1333532 1.104373
1.089021 1.0360168 1.1087351 1.0497392 1.1548178 1.1307708 1.124238 1.0986762
1.1211551 1.1129106 1.102497 1.0698168 1.0097729 1.0881311 1.0501676 1.0294657
1.1111774 1.1228504 1.0579922 1.0923469 1.0595008 1.0863805 1.0794252 1.0494136
1.1284478 1.1269023 1.0480883 1.1184148 1.0625144 1.1296246 1.0734291 1.0802028
1.118971 1.1284189 1.0763519 1.1219085 1.1270748 1.0728617 1.0965066 1.0679691
1.0903502 1.0900929 1.1080375 1.0507069 1.0973957 1.0951304 1.0968211 1.0950725
1.1145518 1.1065477 1.0693076 1.1160028 1.0871565 1.0444129 1.0221003 1.0955497
1.1178944 1.1433445 1.0016495 1.090798 1.0584639 1.065987 1.046853 1.0762864
1.0675163 1.0852953 1.0695857 1.0714736 1.0944619 1.084665 1.108866 1.1353872
1.0740621 1.113003 1.1242657 1.0815165 1.0810245 1.0711771 1.0996202 1.0383153
00000000: ee2b 8b3f fe19 893f 5319 843f 2397 883f
00000010: 059e 913f 9979 863f c3ad 883f 3284 8c3f
00000020: 6166 823f b8c4 8e3f a690 923f 2e2f 8e3f
00000030: eb46 873f c675 8f3f 7e3b 913f b627 8e3f
00000040: 222d 8b3f d27a 853f 6557 863f 952c 933f
00000050: 367b 8e3f 8daa 8a3f 0346 903f b79f 853f
00000060: 82b8 883f 5b47 8c3f 6213 933f 9d05 8d3f
00000070: 8fdb 8f3f b48b 8e3f 29bd 8b3f 5391 913f
00000080: 52c6 873f bbfe 8d3f 1a94 873f ca03 893f
00000090: 4522 8c3f 05fd 903f 7c60 8c3f de23 903f
000000a0: be9a 843f 15d2 8e3f 3c08 8f3f 9b8e 8b3f
000000b0: 3a93 8a3f 7ee3 893f 0c2a 8b3f bf5c 863f
000000c0: 66d8 883f 0536 8c3f 5aa6 843f 9a65 863f
000000d0: 3bf4 873f 6f72 903f c928 8b3f 20a3 883f
000000e0: 9800 863f 3c3c 873f 789e 913f 7f51 8d3f
000000f0: e7e9 8a3f 80bc 8d3f 13ce 8b3f 0ea0 863f
00000100: 0757 8f3f 080b 8b3f ef6b 8b3f 13d7 8f3f
00000110: 871e 8f3f f1a3 8c3f 9e65 8b3f 7d5e 933f
00000120: 3d83 893f 99c3 843f 4f0f 8a3f bd94 8b3f
00000130: ca99 913f 0250 8b3f acd9 8c3f 76c0 8e3f
00000140: c6ec 893f 006f 873f 4964 8c3f 1a7a 7e3f
00000150: 7e54 8a3f c73a 8e3f ffda 883f a7aa 8f3f
00000160: 356d 8a3f 63cf 933f 3bce 8d3f 7cbc 8a3f
00000170: e1f3 8a3f 8ef9 8c3f dc61 853f 5662 853f
00000180: 566a 8b3f 118d 8c3f 3ce5 8e3f 0282 8c3f
00000190: c2e3 8d3f 3ae0 8c3f 98f0 8b3f fb33 8e3f
000001a0: 4d47 903f 2bb1 8d3f b157 823f 984d 8f3f
000001b0: 2b8d 8d3f 2a90 8b3f 9e62 8b3f 2304 8c3f
000001c0: b090 893f 546b 8c3f 2a85 8c3f 170b 873f
000001d0: 93d6 8d3f 80c1 8b3f 2c40 823f 56d9 8e3f
000001e0: 8d06 8b3f b761 913f 3687 8e3f 1f11 8e3f
000001f0: fef5 8f3f df10 8f3f ded7 803f 9497 893f
00000200: e46c 933f b756 903f 9a53 913f 2cbc 8e3f
00000210: 9c33 893f 6ae4 923f 91d2 903f 696a 853f
00000220: 12c5 8a3f e742 8d3f 4c23 903f 2894 8c3f
00000230: e549 923f d81a 8e3f f64d 8e3f ffdf 8d3f
00000240: 9ef0 893f 8c97 8f3f 8a1b 933f bc3f 8f3f
00000250: 38b6 833f 81c6 8d3f 7cd3 883f 06a5 8d3f
00000260: 1086 8e3f afa1 903f e9fe 863f a488 903f
00000270: 611c 8f3f b0c4 8f3f b2f8 843f cc9f 923f
00000280: 9ea1 893f 597b 843f 13b4 823f 91ae 8c3f
00000290: b339 903f 9fc7 8a3f cc28 913f ed39 8a3f
000002a0: 7541 893f 6610 8d3f 8ea2 8d3f 86c5 883f
000002b0: e3bb 873f d47c 853f b811 913f 185c 8d3f
000002c0: 0a65 8b3f 339c 843f 08eb 8d3f db5d 863f
000002d0: 12d1 933f 19bd 903f 08e7 8f3f 6ca1 8c3f
000002e0: 0382 8f3f db73 8e3f 9f1e 8d3f c2ef 883f
000002f0: 3d40 813f e147 8b3f e46b 863f 88c5 833f
00000300: 103b 8e3f 90b9 8f3f 4a6c 873f 06d2 8b3f
00000310: b99d 873f 840e 8b3f 9b2a 8a3f 2f53 863f
00000320: fa70 903f 563e 903f c227 863f 3728 8f3f
00000330: 7900 883f 8a97 903f 2066 893f 1644 8a3f
00000340: 713a 8f3f 0870 903f e6c5 893f b39a 8f3f
00000350: fd43 903f 8853 893f 545a 8c3f 36b3 883f
00000360: 9890 8b3f 2a88 8b3f 2cd4 8d3f 907d 863f
00000370: 7677 8c3f 3c2d 8c3f a264 8c3f 562b 8c3f
00000380: a2a9 8e3f 5ba3 8d3f 12df 883f 2ed9 8e3f
00000390: f227 8b3f 52af 853f 2fd4 823f f93a 8c3f
000003a0: 2a17 8f3f 1d59 923f 0d36 803f 459f 8b3f
000003b0: bf7b 873f 4372 883f 47ff 853f c1c3 893f
000003c0: 60a4 883f f5ea 8a3f 2fe8 883f 0c26 893f
000003d0: 5417 8c3f 4dd6 8a3f 52ef 8d3f 5e54 913f
000003e0: de7a 893f e276 8e3f f0e7 8f3f 226f 8a3f
000003f0: 035f 8a3f 551c 893f 5bc0 8c3f 84e7 843f

net.2.1.bias f4 [256]
0.05802565 0.024686147 0.008773082 0.038490307 0.07249734 0.024578465 0.04247064 0.031856444
-0.0010954769 0.016940271 0.06913396 0.049799424 0.050755918 0.047650374 0.06409477 0.085593544
0.019548433 0.0072948243 0.02505137 0.046193413 0.011583214 0.062335506 0.02723058 0.0016252871
0.039500743 0.08158245 0.104480214 0.064288415 0.060788885 0.021835255 0.03318006 0.03923825
0.006127683 0.049953945 0.046324316 -0.0074943476 0.021819672 0.045381147 0.02449441 0.04271409
0.0039020383 0.10150031 0.062412057 0.015466886 0.01252577 0.013708321 -0.00012519686 0.038937937
0.018452208 0.008792054 -0.018575983 -0.037682906 -0.009861384 0.09774316 0.048928645 0.04019319
0.020522147 -0.0018770915 0.041246407 0.0034556089 0.08751202 0.018236827 0.06177354 0.03694068
0.07492198 0.04467905 0.0630755 0.024151213 0.04993975 0.03272201 0.01595756 0.05228558
0.044571534 0.019426249 0.030709386 0.013299463 0.038748093 0.04083044 0.081283435 0.06318525
0.019759431 0.020710967 0.058889315 -0.030156497 0.01523296 0.069258496 0.003512105 0.040494278
-0.010900379 0.08139502 0.065576166 0.04592177 0.072474174 0.01817996 0.012202329 0.015547366
0.026339145 0.017616792 0.04536453 0.0035748063 0.006502982 0.008048932 -0.0024486163 0.039217368
0.017924208 0.0027655251 -0.021915449 0.09279912 0.04325496 0.007001012 0.025636515 0.046694625
0.028061328 0.01081649 0.061789867 0.042122666 0.055608254 0.015352981 0.02059857 0.08814038
0.023743924 0.055784162 0.065598726 0.03208856 0.09058296 0.064567156 -0.017895471 0.03363311
0.036348544 0.046521194 0.119761474 0.052375764 0.020386435 0.046596006 0.08228895 0.0040373527
0.02416218 0.06654172 0.047048412 0.014747058 0.09165116 0.024616625 0.05487508 0.018776247
0.05755402 0.009560145 0.03247381 0.008952824 -0.01591572 0.070814155 0.013695793 0.04617203
0.027597766 0.05833694 -0.0032944034 0.028429383 0.05996276 0.09998726 0.0006690129 0.07182699
0.03413843 0.017696502 0.007980343 0.008073725 0.06926254 0.029277744 0.03763601 0.05087667
0.037508916 0.0950307 0.06583879 -0.014784957 0.027559016 0.0019252752 0.028030962 0.0138164535
0.052855708 0.04190527 0.05187158 0.030915098 0.04361109 0.0447171 0.028558066 0.04821819
0.027559664 0.04366606 0.040380914 0.0024273258 -0.01202119 0.05867299 -0.008328247 -0.012446291
0.0360973 0.015700134 0.02011953 0.038062226 -0.006816407 0.03137814 0.034436956 -0.006383913
0.06931914 0.08354124 -0.013551479 0.0128028905 0.054111004 0.050740898 0.043295883 -0.002761103
0.031422228 0.013663444 0.047799412 0.03368168 0.034529977 0.040984515 0.02500239 0.018446915
0.007835294 0.051176485 0.014304747 0.03861998 0.044080548 0.0070131407 0.021150129 0.011108121
0.03130295 0.07960331 0.00035872875 0.06856717 0.07476205 0.020674758 -0.007202817 0.041046776
0.08831702 0.019990064 0.0061715865 0.006855032 0.033308037 0.0065210187 0.04385967 0.052179206
0.01522517 0.04427709 0.0242311 0.034396566 0.036617983 0.06533534 0.014841924 0.021517478
0.01297867 0.07896384 0.012113569 0.045187607 0.059713848 0.023378488 0.01650757 0.024478221
00000000: 4eac 6d3d 9a3a ca3c f9bc 0f3c 03a8 1d3d
00000010: 7c79 943d c758 c93c b2f5 2d3d e77b 023d
00000020: 1b96 8fba 53c6 8a3c 1b96 8d3d 7bfa 4b3d
00000030: 70e5 4f3d 0a2d 433d 1e44 833d ab4b af3d
00000040: 0924 a03c 6c09 ef3b 8838 cd3c 4e35 3d3d
00000050: 85c7 3d3c 8453 7f3d aa12 df3c 9607 d53a
00000060: 88cb 213d b314 a73d b9f9 d53d a5a9 833d
00000070: c4fd 783d d9df b23c d1e7 073d 4ab8 203d
00000080: bbca c83b 829c 4c3d 91be 3d3d 2593 f5bb
00000090: 2bbf b23c 95e1 393d 80a8 c83c f8f4 2e3d
000000a0: 57b9 7f3b 65df cf3d c9a3 7f3d d268 7d3c
000000b0: e338 4d3c de98 603c 4747 03b9 637d 1f3d
000000c0: 1629 973c 8c0c 103c a92c 98bc 6459 1abd
000000d0: a491 21bc 912d c83d 6769 483d 9da1 243d
000000e0: 101e a83c bd08 f6ba fef1 283d 7f77 623b
000000f0: 8039 b33d 6665 953c 4006 7d3d 1c4f 173d
00000100: b270 993d 6101 373d ba2d 813d c4d8 c53c
00000110: a08d 4c3d 8407 063d 6eb9 823c 6829 563d
00000120: a490 363d cc23 9f3c 4092 fb3c fee5 593c
00000130: 52b6 1e3d d23d 273d ee77 a63d 4567 813d
00000140: 88de a13c 0caa a93c ec35 713d c20a f7bc
00000150: aa93 793c 66d7 8d3d 582b 663b 54dd 253d
00000160: 8197 32bc 6fb2 a63d cc4c 863d 7718 3c3d
00000170: 576d 943d 24ee 943c 47ec 473c 61ba 7e3c
00000180: 31c5 d73c 1751 903c 28d0 393d 4c47 6a3b
00000190: f816 d53b abdf 033c f778 20bb 64a2 203d
000001a0: cad5 923c d03d 353b 0788 b3bc 770d be3d
000001b0: 1d2c 313d bf68 e53b ab03 d23c dd42 3f3d
000001c0: dfe0 e53c a637 313c 5f17 7d3d d188 2c3d
000001d0: 7bc5 633d 128b 7b3c 55be a83c f282 b43d
000001e0: 9e82 c23c ef7d 643d a058 863d 4b6f 033d
000001f0: 8f83 b93d c93b 843d 8699 92bc dfc2 093d
00000200: 36e2 143d 028d 3e3d 8145 f53d f887 563d
00000210: 7401 a73c 74db 3e3d 1c87 a83d c54b 843b
00000220: c4ef c53c 0647 883d d6b5 403d a59d 713c
00000230: 9ab3 bb3d cea8 c93c b1c4 603d a5d0 993c
00000240: c4bd 6b3d 28a2 1c3c 4203 053d deae 123c
00000250: af61 82bc 0307 913d 5264 603c e21e 3d3d
00000260: b614 e23c b7f2 6e3d ebe6 57bb bde4 e83c
00000270: 839b 753d 1fc6 cc3d b260 2f3a 071a 933d
00000280: bdd4 0b3d 41f8 903c fcbf 023c a847 043c
00000290: 85d9 8d3d e1d7 ef3c 3828 1a3d 0e64 503d
000002a0: f3a2 193d 759f c23d 7dd6 863d 9b3c 72bc
000002b0: 72c3 e13c 8459 fc3a 30a1 e53c 685e 623c
000002c0: 3a7f 583d dca4 2b3d 4b77 543d a941 fd3c
000002d0: 8ba1 323d 4729 373d 9bf2 e93c 7080 453d
000002e0: cec4 e13c 2fdb 323d 7566 253d c513 1f3b
000002f0: 86f4 44bc 1753 703d 3373 08bc 87eb 4bbc
00000300: c3da 133d 919d 803c b6d1 a43c 23e7 1b3d
00000310: 2b5c dfbb 5d86 003d c40d 0d3d 2530 d1bb
00000320: 31f7 8d3d ab17 ab3d 0607 5ebc 37c3 513c
00000330: 80a3 5d3d b0d5 4f3d 0657 313d 9ff3 34bb
00000340: 98b4 003d a3dc 5f3c 51c9 433d cdf5 093d
00000350: 4e6f 0d3d 61df 273d d0d1 cc3c fc1d 973c
00000360: 9b5f 003c 6f9e 513d 755e 6a3c fc2f 1e3d
00000370: ce8d 343d 7dce e53b 0943 ad3c d6fe 353c
00000380: 8637 003d 0f07 a33d c213 bc39 f26c 8c3d
00000390: d81c 993d 1c5e a93c 9c05 ecbb aa20 283d
000003a0: 8edf b43d 34c2 a33c 053b ca3b 2da0 e03b
000003b0: 026e 083d 45ae d53b 33a6 333d ddb9 553d
000003c0: fe72 793c e55b 353d 4d80 c63c 6ae3 0c3d
000003d0: bdfc 153d 89ce 853d 8b2b 733c 6c45 b03c
000003e0: 7da4 543c cbb7 a13d fe77 463c a416 393d
000003f0: 8296 743d 3e84 bf3c e23a 873c 8d86 c83c
